…
model.add(Conv2D(32, (3,3), 1, activation='relu'))
model.add(MaxPooling2D())
model.add(Conv2D(16, (3,3), 1, activation='relu'))
model.add(MaxPooling2D())
model.add(Flatten())
model.add(Dense(256, activation='relu'))
model.add(Dense(1, activation='sigmoid'))
     

model.compile('adam', loss=tf.losses.BinaryCrossentropy(), metrics=['accuracy'])
     

model.summary()
     
Model: "sequential_2"
_________________________________________________________________
 Layer (type)                Output Shape              Param #   
=================================================================
 conv2d_6 (Conv2D)           (None, 254, 254, 16)      448       
                                                                 
 max_pooling2d_6 (MaxPooling  (None, 127, 127, 16)     0         
 2D)                                                             
                                                                 
 conv2d_7 (Conv2D)           (None, 125, 125, 32)      4640      
                                                                 
 max_pooling2d_7 (MaxPooling  (None, 62, 62, 32)       0         
 2D)                                                             
                                                                 
 conv2d_8 (Conv2D)           (None, 60, 60, 16)        4624      
                                                                 
 max_pooling2d_8 (MaxPooling  (None, 30, 30, 16)       0         
 2D)                                                             
                                                                 
 flatten_2 (Flatten)         (None, 14400)             0         
                                                                 
 dense_4 (Dense)             (None, 256)               3686656   
                                                                 
 dense_5 (Dense)             (None, 1)                 257       
                                                                 
=================================================================
Total params: 3,696,625
Trainable params: 3,696,625
Non-trainable params: 0
_________________________________________________________________

logdir='logs'
     

tensorboard_callback = tf.keras.callbacks.TensorBoard(log_dir=logdir)
     

hist = model.fit(train, epochs=20, validation_data=valid, callbacks=[tensorboard_callback])
…
